…
        ...,
        [0, 0, 0],
        [0, 0, 0],
        [0, 0, 0]],

       [[0, 0, 0],
        [0, 0, 0],
        [0, 0, 0],
        ...,
        [0, 0, 0],
        [0, 0, 0],
        [0, 0, 0]],

       [[0, 0, 0],
        [0, 0, 0],
        [0, 0, 0],
        ...,
        [0, 0, 0],
        [0, 0, 0],
        [0, 0, 0]]], dtype=uint8)]]
slice info
len  1
type <class 'list'>
_________________________________________________________________
Layer (type)                 Output Shape              Param #   
=================================================================
conv3d_1 (Conv3D)            (None, 10, 64, 64, 64)    5248      
_________________________________________________________________
activation_1 (Activation)    (None, 10, 64, 64, 64)    0         
_________________________________________________________________
max_pooling3d_1 (MaxPooling3 (None, 5, 32, 32, 64)     0         
_________________________________________________________________
batch_normalization_1 (Batch (None, 5, 32, 32, 64)     256       
_________________________________________________________________
conv3d_2 (Conv3D)            (None, 5, 32, 32, 32)     55328     
_________________________________________________________________
activation_2 (Activation)    (None, 5, 32, 32, 32)     0         
_________________________________________________________________
conv3d_3 (Conv3D)            (None, 5, 32, 32, 32)     27680     
_________________________________________________________________
activation_3 (Activation)    (None, 5, 32, 32, 32)     0         
_________________________________________________________________
max_pooling3d_2 (MaxPooling3 (None, 2, 16, 16, 32)     0         
_________________________________________________________________
batch_normalization_2 (Batch (None, 2, 16, 16, 32)     128       
_________________________________________________________________
conv3d_4 (Conv3D)            (None, 2, 16, 16, 16)     13840     
_________________________________________________________________
activation_4 (Activation)    (None, 2, 16, 16, 16)     0         
_________________________________________________________________
conv3d_5 (Conv3D)            (None, 2, 16, 16, 16)     6928      
_________________________________________________________________
activation_5 (Activation)    (None, 2, 16, 16, 16)     0         
_________________________________________________________________
conv3d_6 (Conv3D)            (None, 2, 16, 16, 16)     6928      
_________________________________________________________________
activation_6 (Activation)    (None, 2, 16, 16, 16)     0         
_________________________________________________________________
max_pooling3d_3 (MaxPooling3 (None, 1, 8, 8, 16)       0         
_________________________________________________________________
batch_normalization_3 (Batch (None, 1, 8, 8, 16)       64        
_________________________________________________________________
flatten_1 (Flatten)          (None, 1024)              0         
_________________________________________________________________
dense_1 (Dense)              (None, 1024)              1049600   
_________________________________________________________________
activation_7 (Activation)    (None, 1024)              0         
_________________________________________________________________
batch_normalization_4 (Batch (None, 1024)              4096      
_________________________________________________________________
dense_2 (Dense)              (None, 1024)              1049600   
_________________________________________________________________
activation_8 (Activation)    (None, 1024)              0         
_________________________________________________________________
batch_normalization_5 (Batch (None, 1024)              4096      
_________________________________________________________________
dense_3 (Dense)              (None, 1024)              1049600   
_________________________________________________________________
activation_9 (Activation)    (None, 1024)              0         
_________________________________________________________________
batch_normalization_6 (Batch (None, 1024)              4096      
_________________________________________________________________
dense_4 (Dense)              (None, 18)                18450     
_________________________________________________________________
activation_10 (Activation)   (None, 18)                0         
=================================================================
Total params: 3,295,938
Trainable params: 3,289,570
Non-trainable params: 6,368
_________________________________________________________________
None
Comedy: 0.415
Drama: 0.378
Thriller: 0.192
Crime: 0.169
Romance: 0.154
Action: 0.120
Sci-Fi: 0.086
Mystery: 0.083
Horror: 0.077
Musical: 0.067
Adventure: 0.063
Documentary: 0.055
…
